…
ple.py --train --model stand1000000
Using TensorFlow backend.
Updating Model file from 30000 to latest format...
Loaded model gait9dof18musc_Thelen_BigSpheres.osim from file /anaconda2/envs/opensim-rl/lib/python2.7/site-packages/osim/env/../models/gait9dof18musc.osim
pelvis
femur_r
tibia_r
talus_r
calcn_r
toes_r
femur_l
tibia_l
talus_l
calcn_l
toes_l
torso
head
Actions: 18
_________________________________________________________________
Layer (type)                 Output Shape              Param #
=================================================================
flatten_1 (Flatten)          (None, 31)                0
_________________________________________________________________
dense_1 (Dense)              (None, 32)                1024
_________________________________________________________________
activation_1 (Activation)    (None, 32)                0
_________________________________________________________________
dense_2 (Dense)              (None, 32)                1056
_________________________________________________________________
activation_2 (Activation)    (None, 32)                0
_________________________________________________________________
dense_3 (Dense)              (None, 32)                1056
_________________________________________________________________
activation_3 (Activation)    (None, 32)                0
_________________________________________________________________
dense_4 (Dense)              (None, 18)                594
_________________________________________________________________
activation_4 (Activation)    (None, 18)                0
=================================================================
Total params: 3,730
Trainable params: 3,730
Non-trainable params: 0
_________________________________________________________________
None
____________________________________________________________________________________________________
Layer (type)                     Output Shape          Param #     Connected to
====================================================================================================
observation_input (InputLayer)   (None, 1, 31)         0
____________________________________________________________________________________________________
action_input (InputLayer)        (None, 18)            0
____________________________________________________________________________________________________
flatten_2 (Flatten)              (None, 31)            0           observation_input[0][0]
____________________________________________________________________________________________________
concatenate_1 (Concatenate)      (None, 49)            0           action_input[0][0]
                                                                   flatten_2[0][0]
____________________________________________________________________________________________________
dense_5 (Dense)                  (None, 64)            3200        concatenate_1[0][0]
____________________________________________________________________________________________________
activation_5 (Activation)        (None, 64)            0           dense_5[0][0]
____________________________________________________________________________________________________
dense_6 (Dense)                  (None, 64)            4160        activation_5[0][0]
____________________________________________________________________________________________________
activation_6 (Activation)        (None, 64)            0           dense_6[0][0]
____________________________________________________________________________________________________
dense_7 (Dense)                  (None, 64)            4160        activation_6[0][0]
____________________________________________________________________________________________________
activation_7 (Activation)        (None, 64)            0           dense_7[0][0]
____________________________________________________________________________________________________
dense_8 (Dense)                  (None, 1)             65          activation_7[0][0]
____________________________________________________________________________________________________
activation_8 (Activation)        (None, 1)             0           dense_8[0][0]
====================================================================================================
Total params: 11,585
Trainable params: 11,585
Non-trainable params: 0
____________________________________________________________________________________________________
None
W tensorflow/core/platform/cpu_feature_guard.cc:45] The TensorFlow library wasn't compiled to use SSE4.1 instructions, but these are available on your machine and could speed up CPU computations.
…
